Using TensorFlow backend.
reading and preprocessing the data...
____________________________________________________________________________________________________
Layer (type)                     Output Shape          Param #     Connected to                     
====================================================================================================
convolution2d_1 (Convolution2D)  (None, 38, 158, 3)    30          convolution2d_input_1[0][0]      
____________________________________________________________________________________________________
activation_1 (Activation)        (None, 38, 158, 3)    0           convolution2d_1[0][0]            
____________________________________________________________________________________________________
maxpooling2d_1 (MaxPooling2D)    (None, 19, 79, 3)     0           activation_1[0][0]               
____________________________________________________________________________________________________
convolution2d_2 (Convolution2D)  (None, 16, 76, 6)     294         maxpooling2d_1[0][0]             
____________________________________________________________________________________________________
activation_2 (Activation)        (None, 16, 76, 6)     0           convolution2d_2[0][0]            
____________________________________________________________________________________________________
maxpooling2d_2 (MaxPooling2D)    (None, 8, 38, 6)      0           activation_2[0][0]               
____________________________________________________________________________________________________
convolution2d_3 (Convolution2D)  (None, 6, 36, 12)     660         maxpooling2d_2[0][0]             
____________________________________________________________________________________________________
activation_3 (Activation)        (None, 6, 36, 12)     0           convolution2d_3[0][0]            
____________________________________________________________________________________________________
maxpooling2d_3 (MaxPooling2D)    (None, 3, 18, 12)     0           activation_3[0][0]               
____________________________________________________________________________________________________
convolution2d_4 (Convolution2D)  (None, 1, 16, 6)      654         maxpooling2d_3[0][0]             
____________________________________________________________________________________________________
activation_4 (Activation)        (None, 1, 16, 6)      0           convolution2d_4[0][0]            
____________________________________________________________________________________________________
flatten_1 (Flatten)              (None, 96)            0           activation_4[0][0]               
____________________________________________________________________________________________________
dense_1 (Dense)                  (None, 48)            4656        flatten_1[0][0]                  
____________________________________________________________________________________________________
activation_5 (Activation)        (None, 48)            0           dense_1[0][0]                    
____________________________________________________________________________________________________
dropout_1 (Dropout)              (None, 48)            0           activation_5[0][0]               
____________________________________________________________________________________________________
dense_2 (Dense)                  (None, 24)            1176        dropout_1[0][0]                  
____________________________________________________________________________________________________
activation_6 (Activation)        (None, 24)            0           dense_2[0][0]                    
____________________________________________________________________________________________________
dropout_2 (Dropout)              (None, 24)            0           activation_6[0][0]               
____________________________________________________________________________________________________
dense_3 (Dense)                  (None, 12)            300         dropout_2[0][0]                  
____________________________________________________________________________________________________
activation_7 (Activation)        (None, 12)            0           dense_3[0][0]                    
____________________________________________________________________________________________________
dropout_3 (Dropout)              (None, 12)            0           activation_7[0][0]               
____________________________________________________________________________________________________
dense_4 (Dense)                  (None, 1)             13          dropout_3[0][0]                  
____________________________________________________________________________________________________
activation_8 (Activation)        (None, 1)             0           dense_4[0][0]                    
====================================================================================================
Total params: 7,783
Trainable params: 7,783
Non-trainable params: 0
____________________________________________________________________________________________________
saving the model...
training...
Train on 10611 samples, validate on 2653 samples
…
